results_NN_reg/NN_weights.pth (torch, 45967 bytes, 7 tensors)

model.0.weight f4 [128, 3]
000000 61 84 ac bb 41 04 f5 bd 12 7b 15 40 15 d7 91 bc
       -0.0052648042 -0.11963702 2.3356366 -0.017802754
000010 fb dd 3a be d7 eb 1d c0 66 e0 e7 3d ff 40 a6 be
       -0.18248741 -2.4675195 0.113220975 -0.32471463
000020 ae 98 bf bf 62 de 0e 3d 70 5b 7b 3b e3 24 79 bd
       -1.4968469 0.03488005 0.0038354062 -0.060826194
000030 dc 94 63 bd 72 d6 28 3e 54 2b 80 bf f5 8d 5e be
       -0.055561885 0.16488054 -1.0013223 -0.2173384
000040 b9 54 e6 3e 70 58 c0 bc 78 e4 98 3d fd c6 a2 bd
       0.44986513 -0.02347967 0.07465452 -0.0794811
000050 a2 2d 91 bf 27 95 71 be f8 61 0d 3f 50 29 e0 3e
       -1.1342051 -0.23592053 0.55227613 0.4378152
000060 87 53 e5 3d fc 48 41 be a4 0b 51 3f 7a df 8f 3d
       0.11197572 -0.18875498 0.8165839 0.07025047
000070 b1 fc fc bd d6 e1 f4 3f 51 c5 f5 bc d4 66 b6 3c
       -0.123528846 1.913142 -0.030001314 0.02226583
000080 ca 55 8e c0 5b 3c eb 3a 55 7a 91 be 5d 1b 60 40
       -4.4479723 0.0017947064 -0.28413644 3.5016701
000090 09 0f 1c be 95 3c 95 3e 28 9f 17 3f fc 9b 24 bd
       -0.1524011 0.29147783 0.5922723 -0.04018782
0000a0 60 1f 85 3c 4e 87 ac bf 33 15 34 bd 4e cd bd bd
       0.016250312 -1.3478792 -0.04396553 -0.092676744
0000b0 45 e2 8a 3f bb d0 02 bd 6e 3e c6 bd 71 1e 85 bf
       1.0850302 -0.031937342 -0.09679876 -1.0399915
0000c0 9b f1 0c 3e 78 fb c3 be 07 8f 83 bf 73 e1 20 be
       0.1376404 -0.38277793 -1.0278023 -0.15711002
0000d0 de 8e 06 bd a1 a6 01 3c 02 94 88 be ea e1 1d 3f
       -0.032851093 0.007913263 -0.2667542 0.6167284
0000e0 e1 e3 31 3f 88 39 11 be dd 93 86 3e 58 a3 34 bf
       0.6948834 -0.14182103 0.26284686 -0.7056174
0000f0 42 fe 84 bc a5 80 fe 3c 5a c9 43 c0 75 cf 0d bd
       -0.01623452 0.031067202 -3.0591645 -0.034621675
000100 02 cf 5f 3c a4 12 41 40 93 7b 09 bd f5 17 ad 3c
       0.013660194 3.0167627 -0.033565115 0.021129588
000110 e3 f1 0e 3e 59 92 f4 bd 7e 3a e4 3e c8 a6 d2 bf
       0.1395946 -0.11941976 0.44575876 -1.6457148
000120 da 07 32 bc fe 45 4b 3d d3 2b 44 c0 3b c1 fa bc
       -0.01086613 0.049627297 -3.0651748 -0.030609718
000130 bd 80 18 3c f0 b0 3c bf ff 38 e2 3d 46 8a a8 bf
       0.009308037 -0.73707485 0.110460274 -1.3167198
000140 ea d2 b4 3f 56 e5 3f 3e 3e b1 c5 be 0d 5a 59 bf
       1.4126866 0.18739828 -0.38611788 -0.8490303
000150 bd 10 b1 be 6f 83 65 3f 7f 5c 46 3f ef 86 4b 3e
       -0.34583083 0.89653677 0.7748489 0.19875692
000160 e6 22 06 bf c3 ce ce bf b3 71 e1 3c de b8 be be
       -0.52397 -1.6156849 0.027520036 -0.37250417
000170 c0 6f f0 3e 3c 21 05 bd 99 70 b6 3d 82 f0 99 3f
       0.46960258 -0.032502398 0.08908195 1.2026522
000180 78 6a d7 3d 24 34 9a be 0a 54 cd bf d5 eb b0 bd
       0.10518354 -0.30117905 -1.6041272 -0.086387314
000190 e6 48 25 bd a4 84 4b bf f5 cc 70 bd 70 81 01 3d
       -0.040352724 -0.7949927 -0.058789212 0.03161758
0001a0 74 5d c1 bf e9 2a 13 be a6 fc 93 3e d2 ca 18 3f
       -1.5106645 -0.14371838 0.28903693 0.5968448
0001b0 fd b7 4c 3e 15 e6 e1 be 4c a4 63 bd 58 40 d6 bc
       0.19992061 -0.4412085 -0.055576608 -0.026153728
0001c0 a3 b3 b3 3b c1 a3 58 bc ed 1f d2 bc d1 c9 d1 bc
       0.005484061 -0.013222636 -0.025649989 -0.025608929
0001d0 29 86 44 3f c7 4b 02 3e 56 7d 6a be a0 0d a7 be
       0.7676721 0.1272422 -0.22899374 -0.32627583
0001e0 27 56 2d be a5 bf 8d 3e d6 28 bc bd 86 e8 6b 3e
       -0.16927396 0.27685276 -0.09187476 0.2303792
0001f0 b7 b7 11 bf 7f 86 a3 3f da f0 1a bd 7a 06 64 3d
       -0.5692095 1.277542 -0.03782735 0.05567024
000200 41 81 1e c0 77 6f 0c 3e 9f 80 84 be 50 0b 7b bf
       -2.476639 0.13714395 -0.2587938 -0.98064137
000210 50 ee 42 bc 71 96 c3 bc e1 e1 3c 40 e2 80 52 3b
       -0.011897638 -0.023875447 2.9512866 0.0032120277
000220 95 26 b2 3e a8 d4 a7 3f 1c c3 ea bd ec c0 5c 3e
       0.3479506 1.3111773 -0.114629954 0.21557969
000230 33 0b fd bf d1 4a 59 be bd 57 f8 3e 7e fb 84 3f
       -1.9769043 -0.21219946 0.4850444 1.0389249
000240 04 23 37 bc 2c 82 f2 bd e3 16 8d 40 eb b1 67 ba
       -0.011177782 -0.118412346 4.409044 -0.00088384625
000250 1c 16 1f 3b fc 87 3f bf d2 09 ce bc 0b a6 05 3c
       0.0024274653 -0.7481687 -0.025151167 0.0081572635
000260 52 f5 05 40 de 26 ee ba d9 fa d0 bd e6 52 20 40
       2.0930982 -0.0018169542 -0.102040954 2.5050597
000270 b2 64 2b bd be cf 9a bd 7b 07 0d 3d 7f ef d3 bc
       -0.041844077 -0.07559155 0.034430962 -0.025871037
000280 a2 83 07 bd 96 2e 3a 40 16 23 cf bc d5 a6 5a 3c
       -0.03308452 2.9090934 -0.025285285 0.01334544
000290 dc 16 a6 bf 27 c7 8e be a2 05 2c 3f a2 a3 67 3f
       -1.2975726 -0.27886316 0.67196095 0.9048406
0002a0 89 1e 06 be fa c6 80 3e 50 93 39 bf 2a 69 08 3c
       -0.13097586 0.25151807 -0.72490406 0.008325854
0002b0 7e a7 ef bd e7 77 b1 40 2b b7 25 bd 23 57 9f 3d
       -0.117018685 5.5458865 -0.040457886 0.07780292
0002c0 28 98 ff bf 9d 02 8c 3b f4 dc 24 bd b8 e6 07 40
       -1.9968309 0.0042727725 -0.04024978 2.123457
0002d0 2b 9a bd 3c c8 31 eb bd 95 d5 bc 3f 2b 83 e7 3d
       0.023144802 -0.114841044 1.475268 0.11304315
0002e0 f4 cc a6 be 36 06 dc bf f7 19 15 3d 7d 23 de bc
       -0.32578242 -1.7189395 0.036401715 -0.027116532
0002f0 25 aa fe 3e e3 bd 19 3d 15 e8 29 bf 5c f7 c1 3e
       0.49739185 0.037534606 -0.66369754 0.37884033
000300 fd 19 74 3d 4b 30 86 bd c6 3d 83 3f d2 3b c7 bc
       0.059595097 -0.0655218 1.0253227 -0.024320517
000310 9e 6e 16 bc b0 31 12 40 72 1a ae bc db 5d 36 3d
       -0.009181647 2.2842827 -0.021252844 0.0445231
000320 ff 08 29 c0 69 0b 7e 3e c2 4a ed be 9e 00 1a 3f
       -2.641174 0.2480904 -0.46346098 0.6015719
000330 ae 35 2b 3e d2 7d 0b bf f6 2e ab bf c4 6d 2a bc
       0.16719696 -0.5448886 -1.3373706 -0.010402147
000340 08 14 3c 3d 42 32 36 c0 2f a1 12 3d 71 1a 9d bc
       0.04591754 -2.8468175 0.035798248 -0.019177647
000350 79 6e 1a 3f 85 2d d0 bc bc 3e 8b bc b5 0f 46 bf
       0.6032482 -0.02541233 -0.016997688 -0.7736772
000360 a0 c0 82 3e 75 7b 0b bf 5a c2 ec 3e 70 3f 7c 3d
       0.25537586 -0.54485255 0.46242028 0.061583936
000370 d7 8e b6 bd 26 76 0f 3f 71 bf ec bd 10 b8 6f 3e
       -0.08913963 0.56039655 -0.11559952 0.23410058
000380 7d e5 d6 bf 4d 04 8d bc d2 76 c0 3b 73 4b 3a bf
       -1.6788784 -0.017213965 0.0058735395 -0.72771376
000390 c3 5e b3 3d de 65 7b bf 72 00 c8 3f 0b 2a ec 3d
       0.08758309 -0.9820231 1.5625136 0.115314566
0003a0 b4 e6 53 be dd 53 0b 3f af 1d f2 bc ba 84 09 bd
       -0.20693475 0.5442484 -0.02955517 -0.033573844
0003b0 d9 10 07 c0 84 ac 9d bc 92 ff 86 3c 4f 28 46 c0
       -2.1104033 -0.0192473 0.016479287 -3.0962102
0003c0 03 ac 31 3e be 63 f5 be 56 b7 1b bf 9c 73 12 be
       0.17350774 -0.4792766 -0.60826623 -0.14301914
0003d0 b2 48 99 3e 2a 27 69 3f b7 ce ee bb a3 0e 9c 3a
       0.29938275 0.91075385 -0.007287826 0.0011906218
0003e0 5b 00 59 bf 7e 23 a5 3d 13 6b 13 be 5f bf 83 3f
       -0.8476617 0.0806341 -0.14396314 1.0292777
0003f0 66 91 6a 3e b6 d3 fe be 89 ed 9e 3f 5a ab 3e 3b
       0.22907028 -0.49770898 1.241624 0.0029093833

model.0.bias f4 [128]
000000 2a ab 9d bf a1 0f 23 40 39 e4 6e 40 e4 8a 5b c0
       -1.231786 2.547829 3.7326796 -3.4303522
000010 9e 77 27 c0 92 c2 36 40 b8 7c 68 c0 ed 08 92 3d
       -2.6166759 2.8556256 -3.6326122 0.07130609
000020 d0 3e 64 c0 a5 2b 4e c0 8b 54 1d bf f3 19 5f bf
       -3.5663338 -3.2214139 -0.6145713 -0.8714897
000030 41 cf 67 3f c9 a2 55 40 2c e8 70 40 68 5c 39 40
       0.9055062 3.3380606 3.7641706 2.896265
000040 9b 88 45 40 eb 47 69 40 b7 17 32 40 d9 f6 57 40
       3.0864627 3.6450145 2.7826974 3.3744414
000050 b8 15 a6 3f 48 f7 ca 3d 4a ab 74 40 cd c0 4d 40
       1.2975378 0.099104464 3.8229547 3.2148926
000060 d3 1d 05 bf bd f8 22 40 ca 52 f5 3d 6f 49 60 c0
       -0.51998633 2.5464318 0.119786814 -3.504482
000070 9c 60 da 3e 05 6b 5e 40 fd 78 25 c0 9d bc 29 c0
       0.42651832 3.475282 -2.5855095 -2.652137
000080 ab fc 64 40 f7 a1 72 40 c7 3b 3b 40 2f 41 d2 3f
       3.5779216 3.7911355 2.9255235 1.6426142
000090 26 d3 38 c0 9f bc ef 3f 96 1c 2c 3f ac 80 69 c0
       -2.8878875 1.8729438 0.6723112 -3.6484785
0000a0 68 5a 61 40 f0 6e 44 c0 87 0e 34 40 ba ee 59 c0
       3.521143 -3.069271 2.8133867 -3.4051957
0000b0 a2 58 90 bf e4 b5 62 c0 05 93 2a 40 95 94 a2 3f
       -1.1277049 -3.5423517 2.6652234 1.2701594
0000c0 f7 e4 a9 3f 76 48 20 c0 6c f5 fe bf 5c 93 b0 bf
       1.3273 -2.5044227 -1.9918647 -1.379497
0000d0 f5 16 71 40 27 2f e3 be 48 42 cf 3f 16 01 a9 be
       3.7670262 -0.44371912 1.6192102 -0.3300864
0000e0 1b a3 27 40 45 51 67 3f 3e 0e 62 3f ee 9e 10 c0
       2.6193302 0.9035838 0.8830298 -2.2597003
0000f0 ed aa 32 c0 9e cb 67 40 2c b7 4e c0 03 91 59 c0
       -2.7916825 3.6218028 -3.22993 -3.3994758
000100 b8 4e 6d c0 2e 7f ce bf 79 48 8c 3f 5c fa 40 c0
       -3.7079296 -1.6132562 1.0959617 -3.0152807
000110 b8 cd 46 40 62 91 ea be 35 1a 5b c0 50 79 c3 3e
       3.106306 -0.45814043 -3.4234746 0.38178492
000120 49 87 6b c0 1a 14 53 c0 b8 75 33 40 4e c4 a1 3f
       -3.6801322 -3.298102 2.80406 1.2638032
000130 7a 62 0f bf a7 7d 6b c0 eb 4c 2a 40 a0 4f a8 3e
       -0.5600964 -3.6795442 2.6609447 0.3287325
000140 1a a0 5b 40 42 29 fc bf 32 a0 85 3e 54 46 55 c0
       3.4316468 -1.9700091 0.26098782 -3.3324175
000150 70 f1 5b c0 da 20 eb bf 90 9b 65 c0 32 36 23 40
       -3.4366112 -1.83694 -3.5876198 2.5501828
000160 a6 74 59 40 1c 11 1f c0 80 c5 fc 3f 04 20 0f c0
       3.3977447 -2.4854193 1.9747772 -2.236329
000170 56 dd 39 40 26 98 66 c0 ac 26 09 c0 69 ca 71 40
       2.9041343 -3.6030364 -2.1429853 3.7779791
000180 1d b3 ac 3f 12 1d 3e c0 a7 54 2d 40 e8 52 42 c0
       1.3492161 -2.9705243 2.7082918 -3.0363102
000190 0d b8 c9 bf 69 21 05 c0 2b d8 37 c0 e5 63 63 40
       -1.5759293 -2.0801642 -2.8725688 3.552972
0001a0 60 28 31 40 4c a4 83 3f c2 b0 39 c0 2f 4e b2 3f
       2.7680893 1.0284514 -2.9014134 1.393011
0001b0 26 38 48 c0 f8 49 2a 40 c0 20 5f c0 6d ba 50 40
       -3.128427 2.6607647 -3.486374 3.2613785
0001c0 3f 7a 48 40 f4 61 5f 40 5a ce 65 bf 91 13 ad be
       3.1324613 3.4903536 -0.8976799 -0.3380399
0001d0 8d 72 0e 40 a2 c9 38 c0 d7 1d bd bf c3 b3 02 40
       2.2257416 -2.8873067 -1.4774731 2.0422218
0001e0 ee e9 67 40 c5 07 39 c0 0c ec 4d 40 63 1e 02 40
       3.623653 -2.8910992 3.2175322 2.0331047
0001f0 ed 19 1a c0 a9 3b 63 c0 0c ad cb bf a7 7f 4f 40
       -2.4078324 -3.5505164 -1.5912185 3.2421663

model.2.weight f4 [64, 128]
000000 c1 94 c7 3d 21 6f 7e bf b8 3b e8 bf 49 6a 53 3f
       0.097451694 -0.9938832 -1.8143225 0.82584053
000010 b2 0f 81 3e c7 fa 52 3d 37 ea 6b 3f df 53 b6 be
       0.25207287 0.05150869 0.9215426 -0.35610864
000020 f5 58 11 3f 43 8a 67 3f 64 47 75 bd 22 63 5a 3e
       0.5677636 0.90445346 -0.059882537 0.21326879
000030 1c f3 be be a2 c8 4a be 61 c3 97 be 15 51 c8 bd
       -0.37294853 -0.19803098 -0.2964125 -0.0978109
000040 53 c5 96 bf 60 d7 f6 bd 60 00 85 be bb 47 ef bd
       -1.1778969 -0.12052798 -0.2597685 -0.116836034
000050 dd 51 5e bd 33 35 ec bb aa 94 1f bf 22 58 8f bc
       -0.05427729 -0.0072084903 -0.6233622 -0.01749808
000060 77 83 e5 3c d9 75 3c be 27 be a9 3d 91 b1 aa 3e
       0.028016789 -0.1840433 0.08288222 0.33338597
000070 fa 72 27 bf bc 2c 79 bf b2 86 4c 3e 7a 9f 11 3e
       -0.65409815 -0.97333884 0.19973257 0.14220992
000080 64 60 e2 bf 4a 4e 0f be 90 1a 49 bd e6 47 84 be
       -1.7685666 -0.13994709 -0.049097598 -0.25836104
000090 8a 35 2b 3e 58 b8 d1 bd 82 d6 29 be ab cc b5 3e
       0.16719642 -0.10240239 -0.16585734 0.35507712
0000a0 67 82 90 bd a5 e3 c8 3d 70 19 88 bc 33 8e ba 3e
       -0.07056122 0.09809045 -0.016613692 0.36436614
0000b0 94 38 1a be a3 79 b3 3d 41 83 20 bd 1c fe 5e be
       -0.15060645 0.08763435 -0.039187673 -0.21776623
0000c0 0b d8 bc be eb f0 81 3d 56 8c 09 bc e2 3a 5d 3d
       -0.36883578 0.063447796 -0.008395275 0.054011233
0000d0 d3 87 8d be f1 d7 7b bd fe 1a d0 bd 18 40 cc be
       -0.27642688 -0.061485235 -0.10161398 -0.3989265
0000e0 ed 25 2b bd c0 13 a1 bd 4a f1 ce bd 2b 57 1e be
       -0.041784216 -0.07865095 -0.10104616 -0.1546294
0000f0 40 8f c5 3e be 84 bc bf f3 d5 eb 3e 48 3e 97 3e
       0.38585854 -1.472801 0.46061668 0.29539704
000100 2d 8f 0b 3f a0 7e 3e 3d c6 ed 9a bd 17 9f ec bc
       0.54515344 0.046507478 -0.07564883 -0.028884454
000110 61 91 4d bf e2 88 fa 3c 61 e1 3e 3f 75 d0 1b 3c
       -0.80299956 0.030582849 0.7456265 0.009510149
000120 b4 fd 31 3e d1 88 d0 3e f2 d8 b8 bd c9 d6 53 3d
       0.17381936 0.40729383 -0.09025754 0.051718507
000130 6a bf 10 3d 94 63 08 3f 28 52 32 be 06 0f e7 3d
       0.035338797 0.53276944 -0.17414153 0.11282162
000140 d7 4e 83 bf d6 ad 51 3e 78 43 14 bd 45 db e2 3e
       -1.0258435 0.2047647 -0.036197156 0.44307914
000150 0c 60 16 3e ee b2 cf 3c 14 a3 1a 3e d4 2c 52 bf
       0.14685076 0.025353875 0.15101272 -0.8209965
000160 fb 43 0b 3c 0c f5 52 3e aa 45 21 bd 97 aa 44 bc
       0.0085000945 0.2060129 -0.039373077 -0.012003562
000170 cc d6 1d be 91 42 70 3d eb 9e 68 3d ac 0c 50 be
       -0.1541397 0.058657233 0.05679218 -0.20317334
000180 f8 3a eb bd ab b5 11 3e e8 15 d8 bb 56 cf 00 3e
       -0.11485857 0.14229457 -0.0065944083 0.12579092
000190 12 1c 83 3c 97 d0 87 3d 82 35 55 3d 79 b9 2b be
       0.016004596 0.06631582 0.052052982 -0.16769971
0001a0 d8 2b 3f bd 1a 26 02 bd 8a 42 bc 3d 4e 3f 84 be
       -0.046672672 -0.031774618 0.09192379 -0.25829548
0001b0 19 9b e8 3d 4a c5 8b bd 5a fa 0b 3f 1f 92 36 bf
       0.113577075 -0.06824739 0.5467888 -0.71316713
0001c0 33 4d 4a be d2 51 af be 66 3e c7 ba dd f1 98 3d
       -0.19756012 -0.3424211 -0.0015201091 0.07468007
0001d0 5f 0b 9f bd 3c 17 79 3e fe 8e d1 bd 66 0a ac 3b
       -0.07765841 0.2432527 -0.10232352 0.005250263
0001e0 88 89 94 be 42 5e 91 3e c9 d3 12 be 20 d6 0b bd
       -0.29011178 0.28392226 -0.14338602 -0.034139752
0001f0 02 e3 53 3e be e5 c6 3e 07 41 a8 3d 28 eb 17 c0
       0.20692065 0.38847154 0.08215528 -2.3737278
000200 8e 7a e1 3c d2 b1 fd be 73 a4 2d bd b5 42 04 bf
       0.027524259 -0.4954973 -0.04239316 -0.51664287
000210 ee 33 6d be 3f 41 33 bd 73 40 57 bf fc 7b 12 bf
       -0.23164341 -0.043763395 -0.84082717 -0.57220435
000220 54 93 8d bd ff ca b9 3e d8 42 63 be 51 00 29 bc
       -0.06912866 0.36287686 -0.22193468 -0.010315017
000230 21 cf cc be dc dc 3e bd ea 8b e1 3e 4c df 84 bd
       -0.40001777 -0.046597347 0.44052058 -0.06487903
000240 9d e9 5e be a7 69 28 bd 20 05 ab bd 19 44 65 3d
       -0.21768804 -0.041116383 -0.08350587 0.055973146
000250 05 cb a4 be 43 b4 0c 3e fc 08 e6 3e 1f ea ec 3c
       -0.32186142 0.1374064 0.4492873 0.028920231
000260 45 93 af bd 31 22 ac bd 60 5a 76 3e c6 a0 a4 be
       -0.08573011 -0.08404959 0.24057913 -0.3215391
000270 a0 25 86 bf 6c b3 24 be b4 b7 b1 bd 2b 76 07 ba
       -1.0480232 -0.16084069 -0.08677617 -0.00051674497
000280 d3 d6 6b be ff b3 a7 3d 90 6d ea bc db 6a 97 bd
       -0.23031168 0.081886284 -0.028616697 -0.07393428
000290 2e d6 ab bc 12 33 02 be 2a b7 13 bd 72 03 90 be
       -0.020976152 -0.12714794 -0.03606335 -0.2812763
0002a0 9a f5 de 3d 75 2e ac bd e3 8b 31 bc 87 46 a1 be
       0.108866885 -0.084072985 -0.010836574 -0.3149912
0002b0 6d 43 ff 3d ad ef 72 3c 29 e0 3f be e9 9f ba be
       0.12464032 0.014827651 -0.18737854 -0.36450127
0002c0 56 0f a3 3e e4 92 29 be 56 1a 23 3e 9a 04 c1 bd
       0.31847638 -0.1655994 0.15928015 -0.09424706
0002d0 0f 40 74 3e 50 53 0d 3e aa 67 d4 bd e3 5a 38 bf
       0.23852561 0.13801312 -0.10371335 -0.7201368
0002e0 5f 56 c8 bd 9e b5 73 3e 0a ca 03 be 19 41 41 3c
       -0.09782099 0.2379975 -0.1287004 0.011795306
0002f0 61 a0 a9 3e b3 83 9a be 7f 88 6c bd b6 a7 e4 be
       0.33130172 -0.30178604 -0.05774736 -0.44659203
000300 59 97 44 be d2 b5 1b 3e ff 7c 80 be c9 85 94 3d
       -0.1919836 0.15206078 -0.25095364 0.0725208
000310 e2 18 3f be f9 34 7d be 77 15 5f be 6b eb 79 bc
       -0.18661836 -0.24727239 -0.21785532 -0.015253882
000320 75 0d 9b bc c7 e0 68 3c 7f 30 62 bd b6 46 97 3d
       -0.018927315 0.014213747 -0.05522203 0.07386534
000330 58 24 a0 3d 13 9e 17 be 3b f0 5f be 7e 54 52 be
       0.07819432 -0.14806394 -0.21868984 -0.20540044
000340 0d 68 1b 3e 60 4a a7 be db 3f 98 bc e9 ff 79 3c
       0.15176411 -0.3267393 -0.018585136 0.015258768
000350 d1 34 c3 3d 68 7c 11 be 9b 73 ec bd 88 83 38 be
       0.09531558 -0.14207613 -0.115454875 -0.18018925
000360 18 e7 a7 bd c3 ec 32 be 11 e9 0d be 49 5c 97 bb
       -0.081983745 -0.1747313 -0.13858439 -0.0046191555
000370 0e 5f 14 be 12 36 52 bc ad 8d df 3c 13 4c fa 3d
       -0.14489385 -0.012830274 0.027289236 0.12221541
000380 5d ea c2 be b0 b1 84 3d d4 ea 88 be ab e8 82 be
       -0.3806943 0.06479204 -0.2674166 -0.25568137
000390 f5 b3 4d 3d d3 72 93 be 05 8b b3 3d 17 4c 94 3d
       0.05022045 -0.2879854 0.0876675 0.072410755
0003a0 ea f9 a0 3c e1 08 37 3c a2 70 03 b8 08 34 04 3e
       0.019650418 0.0111715505 -3.133773e-05 0.12910473
0003b0 bf 3a ab 3d 71 6c 8b be 47 fb 25 3d bc fc 10 bd
       0.08360814 -0.27231172 0.04052284 -0.035397276
0003c0 9d 9e 92 bd 30 f2 1c bd cf eb 68 3d 5f 59 11 3d
       -0.07159159 -0.038316905 0.05686551 0.03548562
0003d0 ed 32 32 bd e3 0c 69 3d 22 6e bf be 8b 7a 6e be
       -0.043505598 0.056897055 -0.37388712 -0.23288934
0003e0 cb d4 3e 3e ba e0 19 be c6 e2 f1 3d ab 4b a1 bd
       0.18635862 -0.15027133 0.11810832 -0.07875761
0003f0 9e 5a 31 3e f8 3e b2 bc fd f9 64 3d c7 0a 46 40
       0.17319724 -0.021758541 0.05590247 3.0944078

model.2.bias f4 [64]
000000 30 3c 2d bf 51 3f b5 3f 13 39 25 3e 3d 45 55 be
       -0.67669964 1.4159948 0.16135053 -0.20827194
000010 8f d1 08 c0 2d c5 8f bf 89 38 40 3e 3e db e9 3f
       -2.1377904 -1.1232048 0.18771566 1.8270032
000020 d8 a4 9a 3e 60 22 f3 3e 35 27 12 bf c5 2d 1a c0
       0.3020389 0.47487164 -0.57091075 -2.4090436
000030 db f9 1f bf 37 c1 12 c0 f0 b1 1d bf 65 9f b8 bf
       -0.62490624 -2.293043 -0.61599636 -1.4423643
000040 2f 8a 34 3f 28 1b ff be a0 ed 16 c0 af 84 8a 3f
       0.7052335 -0.49825406 -2.3582535 1.0821742
000050 ef 22 43 3f bd 73 2e c0 08 85 3f c0 45 10 94 bf
       0.7622518 -2.725814 -2.9924946 -1.1567465
000060 7f ef 02 40 69 4b b1 bf 67 a3 cd 3e 44 ec d2 3f
       2.0458677 -1.3851138 0.4016373 1.6478353
000070 fa 77 bb 3f 97 04 19 40 6c d3 95 3f 43 5e 3a 3f
       1.4645989 2.3909051 1.1705146 0.7280008
000080 e9 dc a6 3f 93 e7 93 bf 04 5f 2f 40 93 62 07 c0
       1.3036166 -1.1555046 2.7401743 -2.1153915
000090 d9 4b 80 3e 00 99 d5 bf f9 87 14 c0 24 92 da bf
       0.25057867 -1.6687317 -2.320799 -1.7075849
0000a0 b0 f2 1d 40 09 7f 98 3e 9f 58 9f 3f 46 14 cd bf
       2.4679375 0.2978442 1.244892 -1.6021812
0000b0 b8 4d 77 bf cc 43 23 c0 b1 fa e2 be 42 99 59 3f
       -0.96602964 -2.551013 -0.44331887 0.8499948
0000c0 6b 6e 87 bf 1f 27 9b 3e 55 2f 01 40 d7 35 41 40
       -1.0580572 0.30303285 2.018514 3.0189111
0000d0 99 38 a3 3f 60 12 d7 be 10 42 74 3f b9 db 08 40
       1.2751647 -0.42006207 0.95413303 2.1384108
0000e0 a3 84 25 40 03 95 96 3f d9 ae c1 be b3 b8 27 40
       2.5862205 1.1764225 -0.3782871 2.6206481
0000f0 ac 1a 39 40 f0 ea 21 40 eb d8 3b c0 56 00 2a bd
       2.892253 2.5299644 -2.9351146 -0.041504227

model.4.weight f4 [32, 64]
000000 25 a4 b2 bd fd 25 74 3d 56 2d 0d bd cd a8 0a 3e
       -0.08722714 0.05960654 -0.034467064 0.13540955
000010 7c 49 49 3d ab 0c 95 3d 04 cd f6 3c 0d d8 a7 3e
       0.049142346 0.07277807 0.030127056 0.3278202
000020 ce 21 0e bd 8e 5c 58 3c f0 b7 30 bd ca 6d 45 3e
       -0.034700207 0.0132056605 -0.043144166 0.19280162
000030 0c 35 cb 3d e9 49 67 3d b1 b9 a1 3d 4b cb 14 bc
       0.09922227 0.05646697 0.07896746 -0.009081672
000040 b5 f5 33 be bd c8 82 bc 94 6f 5e bd 17 bf 1f bd
       -0.17574199 -0.01596486 -0.054305628 -0.039000597
000050 ff 20 7c 3d 6d 3b 89 bd fd 39 29 3e b5 f7 6a 3d
       0.061554905 -0.06700788 0.16526027 0.057365138
000060 b4 a5 c6 bc e6 a8 b9 3e 3d 20 4e 3d c3 b3 8a be
       -0.024248935 0.36261672 0.050323714 -0.27090272
000070 48 3b 8a bd 82 f8 c0 3d 68 35 a6 3e b5 e5 51 3d
       -0.06749588 0.09422399 0.3246262 0.051244456
000080 55 81 52 be 00 1c bb 3d 98 67 1a 3d ff 73 a3 3d
       -0.20557149 0.091362 0.03769645 0.07981109
000090 1c 17 76 3d 4a 4d 9c bd f0 f5 3f 3d fb 20 11 3e
       0.060080633 -0.07631929 0.046865404 0.14172737
0000a0 85 c7 b0 3e 4e 18 c3 3c bf 5d aa 3d ce 5a 03 bd
       0.3452722 0.0238153 0.08318662 -0.03206902
0000b0 fc 2e 2c be 3d 71 16 3e 13 42 70 3e 85 0a 10 3d
       -0.16814798 0.14691634 0.23462705 0.035166282
0000c0 6f 26 98 3d 45 ae fa 3d c6 63 ce bd 84 dd c5 bd
       0.074292056 0.122402705 -0.10077624 -0.096613914
0000d0 a8 a0 dc 3d 2a 58 40 3e 43 03 70 3b e9 38 34 bd
       0.1077283 0.18783632 0.0036623038 -0.043999586
0000e0 53 16 10 3f 76 9e 20 3d 6d 57 14 3e fc f0 1d be
       0.56284064 0.03921362 0.14486475 -0.1542396
0000f0 1d 60 ed 3c 14 c7 b5 3d 3b 79 c1 be 03 0f 74 3d
       0.028976494 0.08875862 -0.37787804 0.05958463
000100 bc 6a 55 3d 5d 33 b1 3c 88 c0 ac 3d 30 11 e9 3e
       0.052103743 0.021630937 0.0843516 0.45520926
000110 76 b2 83 be b5 32 0f 3e 25 a1 08 3c 1c 2b 58 bf
       -0.25722092 0.13984187 0.008339201 -0.8444078
000120 f3 28 9d 3d 96 10 70 3e 48 2a de 3d 84 e7 1d be
       0.07673826 0.23443827 0.10847908 -0.15420347
000130 50 0e 57 3e 65 c1 0e bf fb cf 80 bd 0d 45 31 be
       0.21001554 -0.55763847 -0.06289669 -0.17311497
000140 f4 b7 d7 3c 08 04 24 be e6 15 f4 be 8f 25 15 3e
       0.026332833 -0.16017163 -0.47672957 0.14565109
000150 a2 24 8e 3c 74 28 89 be c6 07 ee be c3 9c 3a 3e
       0.017351452 -0.26788676 -0.46490306 0.18223862
000160 af 06 05 3e eb b1 13 3f 09 74 aa 3d 27 f1 e6 3c
       0.12990831 0.57693356 0.08322913 0.028191162
000170 8e 31 b7 3d cd fa e2 3e b1 b3 66 bf 0a 29 47 3e
       0.08944999 0.4433197 -0.9011794 0.19449249
000180 b8 f1 b6 3d 80 00 5e bc 35 2b b0 bc c1 c6 89 be
       0.08932823 -0.013549924 -0.021504978 -0.2690945
000190 38 bc 2f 3d 17 86 6f bc d6 2c 27 be d6 aa 1c be
       0.04290411 -0.014619372 -0.16325697 -0.15299544
0001a0 a3 c5 35 bf e9 48 37 bf 9c 5b 83 3e e2 e0 d8 bc
       -0.71004695 -0.7159563 0.2565583 -0.02647442
0001b0 a5 ed e8 bd 68 17 d1 be 26 8b 26 3e 41 7a 0d be
       -0.11373452 -0.4083817 0.16264018 -0.13816167
0001c0 fd ea 47 3e 85 6d 1a 3e bf 1f 71 3e c0 9e 3e 3e
       0.19523235 0.15080841 0.23547266 0.18615246
0001d0 db 67 04 3e a6 cf c6 bd e7 70 66 3e 23 f9 61 3d
       0.12930243 -0.097075745 0.22504006 0.055169236
0001e0 41 12 e5 be 2c c5 82 3e ee a0 90 bd 60 16 2f bd
       -0.4474049 0.25541055 -0.07061945 -0.042745948
0001f0 c0 4e 83 b9 de f5 9d bc 9a 7d 3d bf d1 34 73 3d
       -0.0002504494 -0.019282278 -0.7401978 0.05937654
000200 27 a5 02 3d 12 b7 f3 be e0 c9 ab 3e 32 ca b4 3e
       0.031895783 -0.4760061 0.33552456 0.35310513
000210 06 e3 b3 3d 0c 20 c1 3d 5b e3 2f 3e 5d 7f 96 3d
       0.08783536 0.094299406 0.17176573 0.07348511
000220 e6 b4 84 3c 85 11 d4 3d fa 26 76 3e ef 64 d8 3d
       0.01619954 0.10354904 0.24038306 0.105661266
000230 38 4d 87 3e ef fe d6 3e 9a ac 09 3e 2a de 89 3d
       0.264261 0.41991374 0.13444749 0.067318276
000240 63 e6 32 3e 60 74 3d ba 01 c6 02 bd 67 87 8a 3d
       0.17470698 -0.0007227119 -0.031927112 0.06764107
000250 36 88 f9 3d d1 6e 07 3c 2f 33 93 bd 38 3b 87 3e
       0.12184183 0.008266167 -0.07187497 0.26412368
000260 43 1d 2d 3e 69 5b ed bd 21 42 7e bd ae 89 ce 3e
       0.16905694 -0.11589701 -0.062074784 0.40339416
000270 45 c3 19 be 6d 78 2b 3d 1f 3b 14 bd c9 26 9d 3e
       -0.15015896 0.041862894 -0.036189195 0.30693653
000280 66 e3 74 be 04 9b 73 3e f9 9c 56 3e a4 33 2d 3e
       -0.2391487 0.23789603 0.20958318 0.1691423
000290 f5 d7 17 3e 6e 14 7e 3e 22 c7 17 3e 97 d4 7e 3d
       0.14828475 0.24812481 0.14822057 0.06221446
0002a0 2f 52 67 bd 88 68 73 3c 94 9e f5 be f7 1d 13 3e
       -0.05647486 0.014856465 -0.47972548 0.143669
0002b0 e4 76 03 3e 16 a5 ed 3e 9a 00 35 3e af e9 12 3e
       0.12838322 0.46415013 0.1767601 0.14346956
0002c0 4e fe 4a 3e 21 e1 9c 3e 30 6d 45 3d 49 c5 99 bd
       0.19823572 0.3064051 0.048199832 -0.07508332
0002d0 1e a5 fb 3e ad 0b c3 3d 61 80 9a bd 75 77 5f bc
       0.49149412 0.09523711 -0.075440176 -0.013639321
0002e0 37 53 2d bc 89 f1 0e 3e 59 de 69 3e e5 15 f4 bd
       -0.010578922 0.13959326 0.22838725 -0.119182386
0002f0 5a 69 ae be 5e 8e db bd 4b ec 35 bd 72 cf 44 3e
       -0.34064752 -0.10720514 -0.0444148 0.19219759
000300 73 a5 04 3d 44 01 f9 3d 97 39 1d be 9b 39 5e 3d
       0.032384347 0.121584445 -0.15354 0.054254156
000310 cb 65 94 3d 17 9e 28 3e c8 fe cc bd 45 71 85 be
       0.07245978 0.16466556 -0.10009533 -0.2606298
000320 3e 01 99 be 1e 74 ff 3c b5 b2 e7 3c c0 47 3f 3e
       -0.2988376 0.031183299 0.028283456 0.18679714
000330 d3 29 80 3d 71 44 f5 3d af 68 f5 bc 5c 1d 9f 3d
       0.06257977 0.11975945 -0.029957144 0.07769272
000340 db 2c 84 bc 4c 2a 17 3e 69 ec cb 3d 9d 75 62 3d
       -0.01613467 0.14762229 0.09957201 0.055287946
000350 84 13 e7 3c fc ce 9d 3e 48 09 e3 bd 6f e1 9a 3d
       0.028207548 0.3082198 -0.11085755 0.07562529
000360 bc e3 cc bc 84 7e c2 be be a3 0d bd 3c 2a 8f 3d
       -0.025010936 -0.3798715 -0.034579985 0.069904774
000370 85 c7 3d be a5 4b 23 bd 82 90 28 3c 35 53 2f 3d
       -0.18533142 -0.039867062 0.01028836 0.04280396
000380 44 e9 a0 bd 56 b5 46 3d ba 30 e1 be b4 44 90 3d
       -0.07856992 0.04851278 -0.43982488 0.07044354
000390 c1 51 ee bc f6 b6 1a 3e 4b 57 63 3c 74 04 8e 3e
       -0.029091718 0.15108857 0.013875793 0.27737772
0003a0 a2 b9 94 be e3 e2 ab bf 75 1d d9 3c 95 ad 4d 3d
       -0.29047877 -1.3428615 0.026503304 0.05021437
0003b0 89 af e4 ba 2d 43 d7 3d a1 a7 43 bd 5a a4 02 bc
       -0.0017447333 0.1051086 -0.047767285 -0.007973755
0003c0 af 0e 05 3e 5b 37 90 bb 70 8b 2c 3d f7 6c 0d be
       0.12993883 -0.00440113 0.042125165 -0.13811098
0003d0 4a e4 c7 3a f8 2b 76 3b 92 3f 1e be b4 26 40 be
       0.001525053 0.0037562829 -0.15453938 -0.18764764
0003e0 41 c2 c5 be 3b 0c a4 bd f9 16 82 bd 9a 21 1e bf
       -0.38624766 -0.08010145 -0.06352038 -0.6177002
0003f0 1d 5c 40 be c5 a3 8c be 37 93 97 3e 36 60 7d bb
       -0.18785138 -0.27468696 0.29604504 -0.0038662083

model.4.bias f4 [32]
000000 86 6b 08 40 15 77 40 40 00 77 18 bf bf c7 18 c0
       2.1315627 3.0072682 -0.5955658 -2.3871915
000010 b5 db 28 c0 1f 0f 6e 3f 3b 23 3a c0 a7 88 23 40
       -2.6384099 0.9299182 -2.9084003 2.5552156
000020 f6 f3 27 c0 99 ef 91 3e 65 da 9a 3f 1c 5f d4 3f
       -2.6242652 0.2850311 1.2097899 1.6591525
000030 48 72 f2 3f a4 b2 7b bf 5a cc da 3f e5 c5 b0 3f
       1.8941126 -0.9831946 1.7093613 1.3810393
000040 12 e5 0d c0 94 53 54 3f 80 33 eb 3f 71 b2 aa 3f
       -2.2171063 0.8294003 1.8375092 1.3335706
000050 8e 16 e2 3f 92 c6 4f 3f 5c 53 d1 3e 1a c3 ef 3f
       1.7663133 0.8116237 0.4088391 1.8731415
000060 0a 0a de 3e 54 c0 0b 3e 7b 5a 1d c0 64 93 1a 40
       0.43367034 0.13647586 -2.4586475 2.415246
000070 42 b7 dc 3f e3 ca a2 3f f7 69 04 c0 62 05 1a c0
       1.7243426 1.2718166 -2.0689676 -2.4065785

model.6.weight f4 [1, 32]
000000 6a dc 6b be c4 b5 55 3e 3a 9d 90 3b b8 1c 26 3f
       -0.230333 0.2087012 0.004413274 0.6488757
000010 94 65 0d 3f 83 da 87 3e 1c 14 37 3f ae 22 85 bf
       0.5523312 0.265339 0.7151506 -1.0401208
000020 06 16 fd 3e 53 b7 86 3c 19 c0 5e 3f a0 8c 03 bc
       0.49430865 0.016444838 0.8701187 -0.008029133
000030 fd 3a 2c 3c cc fc 52 3f c9 46 6f be fe 70 ef 3e
       0.010512111 0.8241699 -0.23366846 0.46765894
000040 76 41 27 3f 3d f8 e0 ba 30 cb a3 bd cc 27 57 bb
       0.6533426 -0.0017163825 -0.07997739 -0.0032830117
000050 f9 1a 42 be 0a 72 ca bb 0a 04 9a bf 64 8c 7e be
       -0.18955602 -0.0061781453 -1.2032483 -0.24858242
000060 a1 f1 78 3c 07 3b 06 ba 37 ef 0b 3f fe 3c 1c bf
       0.015194328 -0.000512049 0.5466189 -0.61030567
000070 cb 69 0e bf d5 cf 9f 3e 51 0a b5 3e 68 d1 09 3f
       -0.5563018 0.3121325 0.35359433 0.53835154
